models/strategy_weights.pth (torch, 85346 bytes, 6 tensors)

network.0.weight f4 [128, 13]
-0.25974295 0.16853648 -0.20223863 0.092277974 -0.21127927 0.1182442 -0.19124198 0.02112633
0.063715726 -0.07634008 0.06073889 0.045710742 0.27272496 -0.11438395 0.220343 0.16895407
0.11280739 0.22351834 0.15463203 0.07749531 -0.12745327 0.23924217 0.18408778 0.18986657
-0.2202014 0.2311739 0.23616692 0.20319277 0.054880947 -0.18451719 0.06796193 -0.019687265
0.13071421 -0.2395348 -0.22772726 -0.22154772 -0.15017974 -0.24629974 0.10124004 0.04265505
-0.22181034 0.22845933 -0.19794157 -0.086647436 -0.099739075 0.257625 -0.13157788 0.063313335
0.05049032 0.10173908 0.015454471 0.24625668 0.14578879 -0.06812383 0.07554853 0.040282458
-0.2160975 0.010111898 -0.050929427 -0.04445602 -0.082360595 -0.1909326 0.20251128 -0.19834703
0.07964346 -0.2711734 -0.22557819 0.21260622 0.15325439 0.100042015 -0.085905775 0.104245186
-0.08629212 0.26750985 0.014295727 0.27445284 -0.2701628 -0.1607733 0.16898984 0.0022248626
-0.12843738 0.20414913 -0.17971586 -0.049233124 -0.17096333 0.028745055 0.24546441 0.05747059
-0.119764894 -0.2765852 0.16295376 -0.053523734 -0.06166251 -0.08549024 0.17754224 0.17184418
-0.21897411 -0.109763995 -0.00062960386 -0.26007116 -0.16900548 0.027352571 0.20613673 0.17270517
0.086015284 -0.22191289 0.1297572 0.11567682 0.14635211 -0.06807037 -0.12302998 0.036237985
-0.11428939 0.2151641 0.1352107 0.26367655 -0.020622611 0.2764143 0.012676269 0.019392788
0.27176294 0.19473985 0.17976233 0.008486897 0.066286236 -0.2738199 -0.17646018 0.1096814
-0.23246169 0.2666953 -0.19074894 -0.2537411 -0.13473172 -0.11858344 0.1349091 0.27150992
0.20934048 0.17117313 -0.07003115 0.055323213 0.19463101 -0.18340836 -0.0637247 -0.09920068
-0.2137908 0.18601295 -0.024485081 -0.15423235 0.10616085 0.14974445 0.24250725 0.23405966
-0.2163687 0.21190089 -0.2666131 -0.13086931 -0.10268028 0.20160502 0.2632639 -0.110848784
-0.12499681 0.2160075 0.20207646 -0.07139349 0.25980285 0.18197945 0.25673303 0.003853321
0.12041429 0.19730884 0.21731079 0.21112698 -0.2443985 0.22286376 0.101812094 -0.23053238
0.2554221 -0.09694114 -0.25151348 -0.06470445 0.15802595 0.10502353 -0.26984027 0.13159472
0.0020504296 0.22483268 0.13877493 0.1859084 0.0014799237 -0.1582821 0.189924 0.08762029
0.06968993 0.17490685 -0.20960411 0.25088742 0.25203976 0.05632645 0.24573281 -0.09418455
-0.2733833 -0.16440624 -0.015938848 0.10687333 -0.22944303 0.1930545 -0.0458674 -0.10294071
0.23936144 0.14570498 0.16032276 0.06797069 -0.089044124 -0.03357415 -0.018755317 0.13103864
0.031312376 0.10843599 0.087167114 0.08308792 0.20457041 0.25213417 0.18712687 0.11614147
0.07510081 -0.05652751 0.13084885 0.2553105 0.039871633 -0.1903336 -0.22841464 0.22639546
-0.05267924 -0.09092353 -0.028631717 -0.19079408 -0.1176603 -0.24042794 -0.13250707 0.03632599
-0.27291647 0.09267387 -0.09724569 -0.072813764 0.1288192 0.11781123 0.009413362 -0.19139747
0.19727686 0.27554175 -0.2043226 0.06258732 0.04104635 -0.25642905 -0.24969503 -0.1226155
00000000: 07fd 84be d494 2c3e a517 4fbe 3cfc bc3d
00000010: 9859 58be 042a f23d f0d4 43be 2011 ad3c
00000020: 647d 823d 3058 9cbd 58c9 783d 303b 3b3d
00000030: 9ba2 8b3e 2242 eabd 98a1 613e 4c02 2d3e
00000040: 9007 e73d fee1 643e dc57 1e3e dcb5 9e3d
00000050: 1c83 02be e6fb 743e 8281 3c3e 626c 423e
00000060: 7a7c 61be dab8 6c3e bed5 713e c411 503e
00000070: d8ca 603d 13f2 3cbe a02f 8b3d 3047 a1bc
00000080: f2d9 053e 9c48 75be 5631 69be 68dd 62be
00000090: b8c8 19be 0036 7cbe f056 cf3d 10b7 2e3d
000000a0: 4022 63be 3ef1 693e 32b1 4abe 3674 b1bd
000000b0: 0044 ccbd 6de7 833e 5abc 06be 6caa 813d
000000c0: f0ce 4e3d 945c d03d c034 7d3c b62a 7c3e
000000d0: a849 153e 8284 8bbd 30b9 9a3d 38ff 243d
000000e0: aa48 5dbe 60ac 253c 609b 50bd 8417 36bd
000000f0: acac a8bd d683 43be 1e5f 4f3e 7c1b 4bbe
00000100: 1c1c a33d 3dd7 8abe f8fd 66be 72b5 593e
00000110: b8ee 1c3e d4e2 cc3d 5eef afbd 807e d53d
00000120: ecb9 b0bd 0df7 883e a038 6a3c 1585 8c3e
00000130: c752 8abe c2a1 24be ac0b 2d3e 00cf 113b
00000140: 1785 03be 780c 513e 6f07 38be aca8 49bd
00000150: 0311 2fbe c07a eb3c 065b 7b3e 4866 6b3d
00000160: 4c47 f5bd 939c 8dbe 5add 263e b43b 5bbd
00000170: d491 7cbd 8215 afbd a2cd 353e ecf7 2f3e
00000180: c03a 60be f2cb e0bd 000c 25ba 0c28 85be
00000190: c60f 2dbe 8012 e03c 8215 533e a0d9 303e
000001a0: c828 b03d 223d 63be 12df 043e f8e7 ec3d
000001b0: 54dd 153e 7a68 8bbd 24f7 fbbd 486e 143d
000001c0: 8e10 eabd fa53 5c3e ac74 0a3e 9d00 873e
000001d0: c0f0 a8bc 2d86 8d3e 20b0 4f3c a0dd 9e3c
000001e0: 8324 8b3e e269 473e 9e13 383e a00c 0b3c
000001f0: 14c1 873d 1f32 8cbe fab1 34be a4a0 e03d
00000200: 700a 6ebe 498c 883e b153 43be 5aea 81be
00000210: 1df7 09be e0db f2bd 9c25 0a3e 5903 8b3e
00000220: 5a5d 563e 0248 2f3e 7e6c 8fbd 989a 623d
00000230: 5a4d 473e 67cf 3bbe 1882 82bd ba29 cbbd
00000240: faeb 5abe 2e7a 3e3e f094 c8bc 16ef 1dbe
00000250: dc6a d93d 9c56 193e d253 783e 56ad 6f3e
00000260: c28f 5dbe 8cfc 583e 8381 88be 9b02 06be
00000270: 0a4a d2bd 8c71 4e3e 87ca 863e b004 e3bd
00000280: 54fe ffbd 1231 5d3e 22ed 4e3e c036 92bd
00000290: e104 853e d258 3a3e 8372 833e 0088 7c3b
000002a0: c49b f63d 540b 4a3e b886 5e3e ac31 583e
000002b0: 9a43 7abe 6636 643e dc82 d03d ae10 6cbe
000002c0: afc6 823e 1489 c6bd 60c6 80be c483 84bd
000002d0: 8ed1 213e 9416 d73d 8128 8abe c4c0 063e
000002e0: 8060 063b 8a3a 663e 041b 0e3e c65e 3e3e
000002f0: 00fa c13a b414 22be 707b 423e 4472 b33d
00000300: 98b9 8e3d c81a 333e 76a2 56be 5174 803e
00000310: 5b0b 813e 90b6 663d 62a1 7b3e d4e3 c0bd
00000320: e5f8 8bbe 1c5a 28be 3092 82bc 68e0 da3d
00000330: 1df3 6abe 14b0 453e 74df 3bbd 94d2 d2bd
00000340: 2a1b 753e b033 153e a62b 243e 3834 8b3d
00000350: c45c b6bd 0c85 09bd c0a4 99bc fe2e 063e
00000360: 6841 003d b013 de3d ac84 b23d 002a aa3d
00000370: e87a 513e bb17 813e 309e 3f3e 94db ed3d
00000380: 74ce 993d 6489 67bd 3efd 053e 0fb8 823e
00000390: 7050 233d d0e6 42be 87e5 69be 36d4 673e
000003a0: 30c6 57bd 1e36 babd 108d eabc 865f 43be
000003b0: e2f7 f0bd be32 76be efaf 07be 90ca 143d
000003c0: b5bb 8bbe cccb bd3d c028 c7bd 621f 95bd
000003d0: 2ee9 033e 0447 f13d 803a 1a3c b3fd 43be
000003e0: f202 4a3e cf13 8d3e f239 51be c82d 803d
000003f0: 3820 283d ab4a 83be 0eb0 7fbe d61d fbbd

network.0.bias f4 [128]
0.11691934 -0.20923957 -0.101236954 -0.08556642 0.079950005 -0.015458614 0.09705967 0.07131949
0.001321882 0.26786998 -0.20998718 0.1446417 -0.15465495 0.06509879 0.063503504 -0.20021367
-0.19510731 0.12816277 -0.20014557 0.038083553 0.19796008 0.13233596 0.2059196 -0.17214176
-0.05434087 0.1677258 0.117340535 -0.077336624 0.120409995 0.15518314 0.18267232 0.21882609
0.111344874 -0.007696599 0.14360204 0.23861954 -0.10206422 -0.015049756 0.27532676 -0.2197212
0.017371356 -0.26180127 -0.24510917 -0.26510292 -0.1313055 0.0031944215 0.06615305 0.11165789
0.17298114 0.010702908 -0.2595165 -0.028235525 0.20175198 0.08975744 -0.20357305 0.18132076
-0.23091507 -0.24923334 0.17170864 -0.25945386 -0.025124758 -0.01872316 0.097183436 0.09948221
-0.12115787 -0.015264362 0.09400061 0.09192076 -0.2657721 0.043147624 -0.0020851195 0.13316935
-0.20850882 0.13605127 -0.22136557 0.15816489 0.2763066 0.26957837 -0.1289201 -0.0998275
-0.2653352 -0.25852537 -0.25876746 -0.055369288 0.13002977 -0.12221855 -0.16075999 0.15096256
0.05939606 0.21425363 0.110942185 -0.08104172 0.229709 0.0804649 0.27168593 -0.20805672
-0.14595027 0.07854125 -0.1060451 -0.20625599 -0.22273389 0.0791333 -0.087808475 0.2205897
0.20529002 -0.020497024 0.19842377 0.14606836 0.22478536 -0.13575952 0.17533559 0.036526263
0.08709839 -0.16639149 0.06620455 0.23750195 0.009337366 -0.0024703443 0.25622532 0.036913723
-0.09937546 0.011220425 0.14597279 -0.24298683 -0.115164295 0.09401202 0.21697232 0.028770775
00000000: 6873 ef3d e642 56be 5255 cfbd 723d afbd
00000010: d4bc a33d 2046 7dbc 38c7 c63d f40f 923d
00000020: 0043 ad3a 4126 893e e106 57be f41c 143e
00000030: de5d 1ebe 8452 853d 200e 823d d004 4dbe
00000040: 36ca 47be 1a3d 033e f6f2 4cbe 80fd 1b3d
00000050: 0cb6 4a3e 1483 073e 96dc 523e ee45 30be
00000060: 8894 5ebd 50c0 2b3e 3c50 f03d aa62 9ebd
00000070: 8499 f63d 54e8 1e3e 740e 3b3e f213 603e
00000080: c808 e43d c033 fcbb 6a0c 133e ae58 743e
00000090: 0c07 d1bd 4093 76bc a1f7 8c3e 98fe 60be
000000a0: 604e 8e3c d10a 86be e6fd 7abe 92bb 87be
000000b0: f374 06be 8059 513b 407b 873d e4ac e43d
000000c0: f821 313e 405b 2f3c 59df 84be 304e e7bc
000000d0: 1298 4e3e c0d2 b73d 7475 50be 26ac 393e
000000e0: 0075 6cbe 0637 7fbe 64d4 2f3e 23d7 84be
000000f0: 70d2 cdbc 5061 99bc 1c08 c73d 54bd cb3d
00000100: 9e21 f8bd 6017 7abc 6483 c03d f440 bc3d
00000110: 4813 88be 90bb 303d 80a6 08bb 8c5d 083e
00000120: 5683 55be 0651 0b3e a8ad 62be faf5 213e
00000130: 0f78 8d3e 2d06 8a3e a103 04be 5c72 ccbd
00000140: 04da 87be 705d 84be 2b7d 84be e8ca 62bd
00000150: 8626 053e b84d fabd 449e 24be ee95 1a3e
00000160: 4849 733d 4e65 5b3e a835 e33d 34f9 a5bd
00000170: d638 6b3e c8ca a43d 6b1a 8b3e d20c 55be
00000180: fd73 15be 3cda a03d 2c2e d9bd c534 53be
00000190: 5a14 64be a410 a23d eed4 b3bd 44e2 613e
000001a0: 8c37 523e 60e9 a7bc 9a2f 4b3e f292 153e
000001b0: 222e 663e 8b04 0bbe 2c8b 333e 909c 153d
000001c0: a460 b23d 8862 2abe 4096 873d b633 733e
000001d0: c0fb 183c 80e5 21bb f72f 833e d832 173d
000001e0: 5c85 cbbd e0d5 373c e479 153e 8ad1 78be
000001f0: 42db ebbd 6089 c03d fe2d 5e3e b0b0 eb3c

network.3.weight f4 [128, 128]
-0.03180855 0.0017629489 0.012399696 0.033993185 0.019140393 0.034378193 0.060658954 0.021641731
-0.052734505 -0.07738873 0.025606953 -0.021515004 0.035262614 -0.06772891 -0.042388264 -0.026565716
0.08657744 0.0014461651 0.036877193 -0.015707843 0.07331457 0.016626216 -0.07372723 -0.022149958
0.08810284 -0.028552942 0.06493417 0.020255089 0.03995254 -0.03965147 -0.033317715 0.07190708
0.048154138 -0.06440888 -0.03399514 0.022821285 0.06423334 0.049573235 -0.017745487 -0.015119553
0.02891393 -0.07868942 -0.017793328 0.085817866 0.07847152 -0.08226497 -0.083595976 -0.018577784
0.0045399964 0.046821304 0.051096074 -0.043011438 0.022056095 0.039295115 0.03088881 -8.85874e-06
0.025681332 0.0056812614 0.016304627 -0.03623648 0.023451962 -0.041325364 0.039963387 -0.04564648
0.07141692 0.00084307045 -0.02139847 0.060485624 0.0545234 -0.04542914 0.0047550946 -0.05168213
-0.04327551 0.022698477 -0.072016686 -0.0003444031 -0.021315992 -0.06301264 0.002493903 -0.025965545
0.06841447 0.07018619 0.05087634 -0.0069876835 -0.009357989 -0.06705869 -0.082338125 0.07638327
-0.07392847 0.019887097 -0.054005716 -0.07157621 -0.084988296 -0.005161494 0.009268776 0.07027689
-0.0062266067 0.024565913 -0.07124988 0.008743487 -0.06345364 -0.08648194 -0.076634616 -0.018914938
-0.031140853 0.002226241 0.042067595 -0.06073007 0.045475774 0.0031396523 -0.068924576 -0.016394362
-0.033251796 -0.06701006 -0.06963811 -0.07193714 0.07695059 -0.039394762 0.069030635 -0.016220182
0.0075277463 -0.06969729 0.058150046 0.040584303 0.045225374 -0.027914185 0.070680894 -0.06901557
0.060477026 0.0071909055 -0.048586097 0.06262455 0.05350984 0.016823165 -0.020304963 0.083170526
-0.0056532696 -0.0776372 0.07196953 -0.045189083 0.08736288 0.08601662 -0.06940724 0.02873674
0.014867172 -0.005478613 0.051622085 0.0329933 0.013309866 0.084813215 -0.07004213 0.014814831
0.070977546 -0.064348735 0.06848129 0.011357039 0.074724935 -0.023161128 0.024804756 -0.038855515
0.046075948 0.064855866 -0.03771062 -0.086299814 -0.066103056 0.0012577847 0.031632505 0.05858364
-0.028496083 0.036530085 0.04605823 0.0285213 -0.005313456 0.05549694 -0.013223372 0.038612016
-0.058850992 -0.00060466677 0.086834826 -0.05989008 0.06685848 -0.03276795 -0.00214573 0.004988119
0.08523197 0.04334203 -0.06543296 0.013802901 0.013917513 -0.0769661 0.01125475 0.009285279
-0.04691919 -0.087937556 -0.05448752 -0.016481787 0.023746654 -0.06927216 0.048257656 0.041914336
-0.054395933 0.04879611 0.032622337 0.07162475 -0.06671378 -0.02731806 -0.03418457 -0.030806966
-0.04354766 -0.06484892 0.08823245 0.0841705 -0.07917296 0.03607454 -0.013861574 -0.026948608
-0.016228579 0.02488944 -0.016396537 -0.012990557 -0.030043233 0.072353594 0.029543981 0.057223327
-0.05609133 0.085325845 -0.08789646 0.07947373 -0.05914166 -0.077451356 0.018930554 -0.022016965
0.062433355 -0.050530057 0.018628635 -0.013510592 -0.034599937 0.026967078 0.054109864 0.008681618
0.015093103 0.0683004 -0.06166325 -0.068941295 -0.072722666 0.05950915 0.03320446 -0.07676828
0.08747435 0.011171937 0.02200409 0.047264345 -0.046635285 -0.006082453 -0.04993019 -0.047213174
00000000: af49 02bd c012 e73a 1828 4b3c 703c 0b3d
00000010: 50cc 9c3c 26d0 0c3d 8675 783d 004a b13c
00000020: 2300 58bd fc7d 9ebd acc5 d13c 3c40 b0bc
00000030: 886f 103d 74b5 8abd 519f 2dbd 58a0 d9bc
00000040: 834f b13d 408d bd3a 8a0c 173d bcad 80bc
00000050: f325 963d b433 883c 4dfe 96bd d473 b5bc
00000060: 436f b43d dce7 e9bc 35fc 843d 00ee a53c
00000070: 46a5 233d 9469 22bd 2878 08bd 0544 933d
00000080: 463d 453d cee8 83bd 7d3e 0bbd b4f3 ba3c
00000090: c58c 833d 4e0d 4b3d fc5e 91bc 00b8 77bc
000000a0: e8dc ec3c eb27 a1bd 50c3 91bc 47c1 af3d
000000b0: adb5 a03d 897a a8bd 5e34 abbd 7030 98bc
000000c0: 40c4 943b b2c7 3f3d 1e4a 513d c32c 30bd
000000d0: fcae b43c eaf3 203d 880a fd3c 00a0 14b7
000000e0: a861 d23c e029 ba3b 4891 853c b46c 14bd
000000f0: 541e c03c c944 29bd a6b0 233d cef7 3abd
00000100: 0943 923d 8001 5d3a d84b afbc c6bf 773d
00000110: ee53 5f3d e813 3abd a0d0 9b3b a4b0 53bd
00000120: a941 31bd 28f2 b93c 7c7d 93bd 0091 b4b9
00000130: e09e aebc c50c 81bd c070 233b b2b5 d4bc
00000140: e31c 8c3d c7bd 8f3d b663 503d f0f8 e4bb
00000150: 4052 19bc 1156 89bd e4a0 a8bd d56e 9c3d
00000160: cf67 97bd 44ea a23c 1935 5dbd 8c96 92bd
00000170: 580e aebd c021 a9bb 10dc 173c 55ed 8f3d
00000180: 9008 ccbb 743e c93c 75eb 91bd d840 0f3c
00000190: fbf3 81bd 711d b1bd 9cf2 9cbd 80f3 9abc
000001a0: 1a1b ffbc 20e6 113b 124f 2c3d 18c0 78bd
000001b0: ce44 3a3d a0c2 4d3b 5428 8dbd 784d 86bc
000001c0: 0933 08bd 923c 89bd 6d9e 8ebd c753 93bd
000001d0: 4598 9d3d 675c 21bd ef5f 8d3d 30e0 84bc
000001e0: 50ab f63b 74bd 8ebd be2e 6e3d ba3b 263d
000001f0: 3e3e 393d 4aac e4bc 25c1 903d 0958 8dbd
00000200: c2b6 773d b0a1 eb3b 3702 47bd 4d41 803d
00000210: 222d 5b3d bcd0 893c 9856 a6bc 4f55 aa3d
00000220: 103f b9bb 4100 9fbd c364 933d 3018 39bd
00000230: 4feb b23d 7b29 b03d 6225 8ebd 5069 eb3c
00000240: 7095 733c f085 b3bb ae71 533d fc23 073d
00000250: a011 5a3c 8db2 ad3d 4072 8fbd e8b9 723c
00000260: ad5c 913d 45c9 83bd eb3f 8c3d e012 3a3c
00000270: 6309 993d 68bc bdbc 5833 cb3c f626 1fbd
00000280: 22ba 3c3d 27d3 843d 7376 1abd f5bd b0bd
00000290: 0a61 87bd 40dc a43a 1691 013d 66f5 6f3d
000002a0: 9e70 e9bc 92a0 153d 8ea7 3c3d 80a5 e93c
000002b0: 801c aebb c250 633d d8a6 58bc a227 1e3d
000002c0: bd0d 71bd 8082 1eba 75d6 b13d 4d4f 75bd
000002d0: 19ed 883d b037 06bd 609f 0cbb 6073 a33b
000002e0: 198e ae3d 6a87 313d b701 86bd 9025 623c
000002f0: 4806 643c 67a0 9dbd d865 383c 4821 183c
00000300: 562e 40bd 9b18 b4bd 4e2e 5fbd d004 87bc
00000310: 5888 c23c 90de 8dbd d2a9 453d 5eae 2b3d
00000320: 45ce 5ebd 6ede 473d 009f 053d ffaf 923d
00000330: 3ca1 88bd 20ca dfbc 1f05 0cbd e45e fcbc
00000340: 085f 32bd 83cf 84bd 37b3 b43d 9561 ac3d
00000350: 6f25 a2bd e6c2 133d a81b 63bc 54c3 dcbc
00000360: ccf1 84bc f0e4 cb3c 0852 86bc 58d6 54bc
00000370: 3a1d f6bc 1f2e 943d 3806 f23c 0263 6a3d
00000380: 06c0 65bd 51bf ae3d 0f03 b4bd 1fc3 a23d
00000390: 863e 72bd d19e 9ebd 4014 9b3c ec5c b4bc
000003a0: 1eba 7f3d 9bf8 4ebd 149b 983c 885b 5dbc
000003b0: aab8 0dbd 10ea dc3c 4ea2 5d3d 583d 0e3c
000003c0: 1049 773c 15e1 8b3d 9b92 7cbd 1831 8dbd
000003d0: 9fef 94bd debf 733d 6601 083d b038 9dbd
000003e0: c125 b33d 800a 373c ec41 b43c 4298 413d
000003f0: a404 3fbd 504f c7bb 9983 4cbd 9a62 41bd

network.3.bias f4 [128]
-0.045260172 -0.07419719 -0.046740856 0.015628494 0.009247817 -0.08666553 -0.06342363 0.06058886
-0.07843471 0.014786556 -0.08003409 -0.0642098 -0.03328209 0.08098469 0.08788303 -0.058206577
0.060408197 0.05224196 0.07203003 -0.019220173 0.03163802 0.04512026 -0.001332432 -0.0024821833
-0.05499838 -0.07722906 -0.005376987 -0.08324955 -0.043651458 -0.015292332 0.02509521 -0.06928603
0.011974268 -0.08805224 -0.068617694 0.050281577 0.07202458 -0.03722514 -0.07987032 0.071938924
-0.06345677 -0.062237553 0.027607873 0.04191234 -0.033189274 -0.02709663 0.004020557 -0.010778248
0.0080580115 0.08488052 -0.085201874 -0.053797226 0.085226886 0.03820119 -0.04236165 -0.00083065033
-0.028999802 -0.079075076 -0.030166753 -0.07279757 -0.07282458 0.042291217 0.03982029 -0.020287164
0.057199635 -0.053634457 0.08470593 -0.011848353 0.009480245 0.04609128 0.08643868 -0.045128707
-0.028924938 -0.0051786974 -0.042523198 0.031265087 -0.021560028 0.06673854 -0.033293966 -0.04360376
0.041585468 0.07304094 -0.07521693 0.06653135 -0.020531118 -0.00023231655 0.04276491 -0.013897553
-0.00065247715 0.0019052476 0.040904664 0.083412535 0.021907754 0.0033197775 0.021330617 -0.0097491
0.02172637 -0.016158365 0.0474729 -0.060414083 -0.046728272 -0.07557935 0.04145006 0.06543083
0.051291816 0.07243838 0.04245708 -0.0611722 -0.037330948 -0.060462236 -0.07731949 -0.07493405
0.001075305 -0.054544166 0.027625144 0.021155149 0.00091291964 0.045088284 0.059288435 -0.027652703
-0.06960698 -0.055790637 0.041795902 0.050107412 -0.06036811 0.06977842 -0.020578764 -0.0068898425
00000000: bb62 39bd b2f4 97bd 5773 3fbd 5407 803c
00000010: 2884 173c b37d b1bd 40e4 81bd 062c 783d
00000020: 61a2 a0bd 5043 723c eae8 a3bd 6d80 83bd
00000030: cd52 08bd 4ddb a53d 05fc b33d 056a 6ebd
00000040: 966e 773d aafb 553d 7b84 933d a073 9dbc
00000050: de96 013d 06d0 383d 00a5 aeba 20ac 22bb
00000060: fb45 61bd 452a 9ebd 7031 b0bb bd7e aabd
00000070: dfcb 32bd b08c 7abc 7894 cd3c d6e5 8dbd
00000080: b82f 443c bc54 b4bd 6f87 8cbd 0ef4 4d3d
00000090: 9f81 933d 6379 18bd 0d93 a3bd b754 933d
000000a0: 9ff5 81bd ceec 7ebd e829 e23c 46ac 2b3d
000000b0: 7af1 07bd c0f9 ddbc e0be 833b 4097 30bc
000000c0: c005 043c d7d5 ad3d 527e aebd 7b5a 5cbd
000000d0: 6f8b ae3d da78 1c3d 6983 2dbd 00c0 59ba
000000e0: fe90 edbc 1df2 a1bd 4420 f7bc e416 95bd
000000f0: 0e25 95bd 8e39 2d3d 9a1a 233d 4431 a6bc
00000100: 2a4a 6a3d ceaf 5bbd 4d7a ad3d 981f 42bc
00000110: 0853 1b3c 36ca 3c3d c306 b13d e1d8 38bd
00000120: fef3 ecbc 10b2 a9bb ce2c 2ebd d20f 003d
00000130: a89e b0bc 37ae 883d 415f 08bd db99 32bd
00000140: 8655 2a3d 7d96 953d 550b 9abd 9741 883d
00000150: e030 a8bc 009a 73b9 422a 2f3d 90b2 63bc
00000160: 000b 2bba 80b9 f93a a68b 273d 31d4 aa3d
00000170: e477 b33c a090 593b 8cbd ae3c b0ba 1fbc
00000180: 80fb b13c 8c5e 84bc f272 423d c274 77bd
00000190: 2566 3fbd 59c9 9abd 8ac7 293d 9900 863d
000001a0: 5e17 523d 935a 943d 7ae7 2d3d b38f 7abd
000001b0: 56e8 18bd 40a7 77bd ae59 9ebd 0677 99bd
000001c0: 40f1 8c3a b469 5fbd 204e e23c 904d ad3c
000001d0: 0051 6f3a 7eae 383d 6ed8 723d ec87 e2bc
000001e0: 1b8e 8ebd b984 64bd 2e32 2b3d 6e3d 4d3d
000001f0: 8d44 77bd fde7 8e3d cc94 a8bc 30c4 e1bb

network.6.weight f4 [18, 128]
-0.04167884 0.04912562 0.061782695 0.054901488 -0.07266356 -0.054897524 0.07513914 0.07722362
0.031950094 -0.066798136 0.05947811 0.03793227 -0.03137814 -0.008948036 0.02848541 -0.025785536
0.03234899 0.03895148 0.012554906 -0.015958697 -0.040041074 0.02154369 -0.03615484 0.012467071
0.072259165 -0.057854675 -0.03082024 0.046598934 -0.006649025 0.045877375 -0.0019242167 -0.012596458
0.031541392 -0.03319293 0.04223647 0.08365207 -0.053137176 0.07480302 -0.051670518 -0.05493754
0.0075569227 -0.018837154 -0.06645973 0.075866245 0.08417501 -0.07350872 0.033597752 -0.040617466
-0.046090044 -0.024180867 0.05695405 -0.08300101 0.060741507 0.07489806 -0.023496889 -0.027462129
0.044959627 0.004412636 0.06821994 0.0046530366 0.050260313 0.08380585 -0.027136669 -0.05111792
0.014274031 -0.036655273 -0.034690198 0.052033626 0.0053883865 0.07884609 0.0586757 0.0023405626
0.023481429 -0.012389712 -0.01983837 0.048046537 0.030525327 -0.023800388 0.029357575 -0.010752417
-0.05227516 0.06866982 0.014363475 -0.067557365 0.069901995 0.078016706 -0.011579797 0.00211671
-0.022650518 0.0041631088 -0.013900749 0.06701983 0.007809624 0.015045255 -0.0116414875 0.08229511
-0.0696093 0.072873645 -0.07080752 0.020082854 0.069368176 0.086138375 0.058011033 0.0029588118
0.03878712 -0.023441084 0.079962574 0.030125052 -0.086451374 -0.07084647 0.044682257 0.023330271
0.07512083 -0.05921784 -0.0041916966 -0.08036321 0.03183811 -0.046267197 0.067983694 0.055891298
0.017113894 0.08339975 0.054269813 0.015331835 0.07172542 0.00074744225 0.05176372 0.052808948
-0.059079826 -0.07429242 0.06775559 -0.022174045 0.0821353 -0.037307937 0.025508799 0.0027139857
0.07818658 -0.06887587 -0.04581869 -0.026242923 0.08491973 -0.027924161 -0.07842456 0.013140157
0.010821 0.055776678 0.026775092 0.033356808 0.019338883 -0.04740217 -0.05842491 0.008666843
-0.07158933 -0.035025883 0.041233532 -0.045605797 0.064489506 -0.048309106 0.077100374 -0.05369967
0.013981767 0.071396746 0.04147286 -0.004064366 0.011675067 -0.02567359 0.04644964 0.025869146
0.010618359 -0.0014739037 0.06349426 -0.04875754 -0.004278697 0.027531795 0.07264819 -0.019666836
0.0056705624 -0.02948822 -0.014280923 0.07543277 0.073990054 0.007668577 -0.049630504 0.08375708
-0.067794025 -0.07657261 0.07055501 -0.071198255 -0.0596622 -0.022468507 -0.0034959465 0.020952106
-0.028352037 -0.0032048672 0.0039603785 -0.06949055 0.028284453 0.055535085 -0.016526088 0.06207814
-0.044116642 -0.036566973 -0.013126776 0.055420883 0.07936812 0.040737294 0.067082085 0.03628122
0.053214498 -0.03997087 0.05348251 0.056608595 0.021391518 0.025403947 -0.03262596 0.026477084
0.066985436 0.046410866 0.011469804 -0.0845312 0.07272116 -0.08132268 0.012734577 -0.07646378
0.08151949 0.0786904 -0.059992857 -0.008443236 0.048862718 0.08529741 0.054907627 0.062437482
0.05088418 -0.023647435 0.0057999194 -0.017421484 0.03282529 -0.03952972 0.017190143 0.019948557
0.050084956 0.008565232 -0.06474876 -0.026234135 -0.07498821 -0.08030708 -0.047860697 0.06654265
0.054938145 -0.014824055 0.023905724 0.07267714 -0.087583475 0.07881693 0.0022415668 0.057157747
00000000: 6eb7 2abd f237 493d da0f 7d3d 62e0 603d
00000010: a2d0 94bd 3adc 60bd 8de2 993d 6b27 9e3d
00000020: 1ade 023d 76cd 88bd 529f 733d de5e 1b3d
00000030: 5d86 00bd c89a 12bc 3c5a e93c 303c d3bc
00000040: 6080 043d 968b 1f3d 18b3 4d3c d0bb 82bc
00000050: 1c02 24bd 647c b03c 1917 14bd b042 4c3c
00000060: 9dfc 933d 06f9 6cbd ba7a fcbc 86de 3e3d
00000070: 10e0 d9bb eae9 3b3d 0036 fcba 6061 4ebc
00000080: 8c31 013d 4ff5 07bd 2600 2d3d c751 ab3d
00000090: 5ea6 59bd 5332 993d 77a4 53bd 3006 61bd
000000a0: 10a0 f73b 6050 9abc 0a1c 88bd c35f 9b3d
000000b0: f363 ac3d bd8b 96bd cc9d 093d 805e 26bd
000000c0: eac8 3cbd f416 c6bc a648 693d 6ffc a9bd
000000d0: 16cc 783d 2764 993d 8c7c c0bc 42f8 e0bc
000000e0: 9627 383d e097 903b e5b6 8b3d 8078 983b
000000f0: c2dd 4d3d 67a2 ab3d b84d debc 0661 51bd
00000100: a0dd 693c d723 16bd 4f17 0ebd 3621 553d
00000110: 1091 b03b 0f7a a13d ee55 703d 2064 193b
00000120: 205c c03c 38fe 4abc 1484 a2bc 72cc 443d
00000130: 4010 fa3c 08f9 c2bc 4c7f f03c e82a 30bc
00000140: 7a1e 56bd c3a2 8c3d c854 6b3c 845b 8abd
00000150: c728 8f3d 39c7 9f3d 30b9 3dbc 80b8 0a3b
00000160: 948d b9bc b06a 883b f8bf 63bc b141 893d
00000170: e0e7 ff3b 6080 763c f0bb 3ebc 578a a83d
00000180: 528f 8ebd c73e 953d 8803 91bd cc84 a43c
00000190: e710 8e3d 5169 b03d fa9c 6d3d a0e8 413b
000001a0: 3edf 1e3d 8407 c0bc 6bc3 a33d d0c8 f63c
000001b0: 6b0d b1bd f417 91bd be04 373d 201f bf3c
000001c0: f3d8 993d 688e 72bd 805a 89bb 7795 a4bd
000001d0: ae68 023d ac82 3dbd 093b 8b3d 46ee 643d
000001e0: 7032 8c3c 7dcd aa3d 064a 5e3d 6032 7b3c
000001f0: c7e4 923d 00f0 433a 3206 543d 324e 583d
00000200: b0fd 71bd a026 98bd 71c3 8a3d 58a6 b5bc
00000210: 8d36 a83d 35d0 18bd d4f7 d03c 20dd 313b
00000220: 4920 a03d cb0e 8dbd 61ac 3bbd 66fb d6bc
00000230: 65ea ad3d 36c1 e4bc 0e9d a0bd d049 573c
00000240: 904a 313c 1676 643d 7057 db3c 26a1 083d
00000250: 946c 9e3c c728 42bd f54e 6fbd 60ff 0d3c
00000260: 6d9d 92bd 4d77 0fbd 7ee4 283d 25cd 3abd
00000270: 1313 843d c5df 45bd cde6 9d3d 2ff4 5bbd
00000280: c813 653c 7538 923d 72df 293d 602e 85bb
00000290: c848 3f3c 6c51 d2bc fa41 3e3d 88eb d33c
000002a0: a0f8 2d3c 0030 c1ba 4709 823d fcb5 47bd
000002b0: 5034 8cbb 5c8a e13c 93c8 943d 581c a1bc
000002c0: 20d0 b93b 4891 f1bc 88fa 69bc 7f7c 9a3d
000002d0: 1988 973d b048 fb3b 5b49 4bbd d588 ab3d
000002e0: 98d7 8abd 1ad2 9cbd 257f 903d 64d0 91bd
000002f0: 5a60 74bd e00f b8bc 401c 65bb c0a3 ab3c
00000300: 8842 e8bc c008 52bb 10c6 813b 1051 8ebd
00000310: ccb4 e73c c278 633d b861 87bc a645 7e3d
00000320: a7b3 34bd 40c7 15bd b011 57bc 0201 633d
00000330: c18b a23d 26dc 263d 5562 893d 9e9b 143d
00000340: 72f7 593d 7fb8 23bd 7a10 5b3d 6ade 673d
00000350: 443d af3c f01b d03c cca2 05bd 78e6 d83c
00000360: a92f 893d 5219 3e3d d8eb 3b3c b21e adbd
00000370: d5ee 943d 818c a6bd b0a4 503c 0b99 9cbd
00000380: b1f3 a63d 6f28 a13d 12bb 75bd 8055 0abc
00000390: 4624 483d 69b0 ae3d d2e6 603d 72be 7f3d
000003a0: ee6b 503d 44b8 c1bc 400d be3b 80b7 8ebc
000003b0: d073 063d eae9 21bd 58d2 8c3c 286b a33c
000003c0: e225 4d3d 3055 0c3c ff9a 84bd f8e8 d6bc
000003d0: 6b93 99bd 0a78 a4bd 9409 44bd 8347 883d
000003e0: d206 613d 98e0 72bc f0d5 c33c c1d7 943d
000003f0: f75e b3bd c56a a13d 40e7 123b 3e1e 6a3d

network.6.bias f4 [18]
-0.005808659 0.07561656 0.029613696 -0.0013770089 0.048488565 0.06538146 0.0071949437 -0.062446456
-0.037004553 0.060206182 -0.08698829 -0.0021297187 0.020388156 0.0016677156 -0.04775635 0.017507926
0.05207751 0.02420815
00000000: 9056 bebb dbdc 9a3d 6c98 f23c c07c b4ba
00000010: f29b 463d b7e6 853d 90c3 eb3b dbc7 7fbd
00000020: 1692 17bd c29a 763d eb26 b2bd c092 0bbb
00000030: 1005 a73c 4097 da3a 2a9c 43bd c86c 8f3c
00000040: 3a4f 553d 2c50 c63c
